…
[<tensorflow.python.keras.callbacks.EarlyStopping object at 0x7f418339aa30>, <tensorflow.python.keras.callbacks.ReduceLROnPlateau object at 0x7f418339a6d0>, <tensorflow.python.keras.callbacks.ModelCheckpoint object at 0x7f418339a790>]
===TRAIN MODELS===

run_model
('Training Accuracy mean: ', 0.32187085918017794)
('Validation Accuracy mean: ', 0.18066717939717428)
('Training Loss mean: ', 1.9338999680110387)
('Validation Loss mean: ', 3.8781385251453946)
Model: "sequential"
_________________________________________________________________
Layer (type)                 Output Shape              Param #   
=================================================================
masking (Masking)            (None, 500, 20)           0         
_________________________________________________________________
bidirectional (Bidirectional (None, 500, 2048)         8560640   
_________________________________________________________________
bidirectional_1 (Bidirection (None, 1024)              10489856  
_________________________________________________________________
dense (Dense)                (None, 256)               262400    
_________________________________________________________________
batch_normalization (BatchNo (None, 256)               1024      
_________________________________________________________________
dropout (Dropout)            (None, 256)               0         
_________________________________________________________________
dense_1 (Dense)              (None, 128)               32896     
_________________________________________________________________
batch_normalization_1 (Batch (None, 128)               512       
_________________________________________________________________
dropout_1 (Dropout)          (None, 128)               0         
_________________________________________________________________
dense_2 (Dense)              (None, 64)                8256      
_________________________________________________________________
batch_normalization_2 (Batch (None, 64)                256       
_________________________________________________________________
dropout_2 (Dropout)          (None, 64)                0         
_________________________________________________________________
dense_3 (Dense)              (None, 8)                 520       
=================================================================
Total params: 19,356,360
Trainable params: 19,355,464
Non-trainable params: 896
_________________________________________________________________Finished run_model in 20710.1488 secs


===SCORING TEST SET ===

model_complete_evaluate
{'self': <deep_ml.DeepML object at 0x7f418339a5b0>, 'x_test': None, 'y_test': None, 'model': None}
…
