…
[<tensorflow.python.keras.callbacks.EarlyStopping object at 0x7f446245aa30>, <tensorflow.python.keras.callbacks.ReduceLROnPlateau object at 0x7f446245a6d0>, <tensorflow.python.keras.callbacks.ModelCheckpoint object at 0x7f446245a790>]
===TRAIN MODELS===

run_model
('Training Accuracy mean: ', 0.7315079537034035)
('Validation Accuracy mean: ', 0.573554908707738)
('Training Loss mean: ', 0.8352130195498466)
('Validation Loss mean: ', 1.977089928984642)
Model: "sequential"
_________________________________________________________________
Layer (type)                 Output Shape              Param #   
=================================================================
masking (Masking)            (None, 500, 20)           0         
_________________________________________________________________
bidirectional (Bidirectional (None, 500, 256)          152576    
_________________________________________________________________
bidirectional_1 (Bidirection (None, 500, 128)          164352    
_________________________________________________________________
bidirectional_2 (Bidirection (None, 64)                41216     
_________________________________________________________________
dense (Dense)                (None, 32)                2080      
_________________________________________________________________
batch_normalization (BatchNo (None, 32)                128       
_________________________________________________________________
dropout (Dropout)            (None, 32)                0         
_________________________________________________________________
dense_1 (Dense)              (None, 16)                528       
_________________________________________________________________
batch_normalization_1 (Batch (None, 16)                64        
_________________________________________________________________
dropout_1 (Dropout)          (None, 16)                0         
_________________________________________________________________
dense_2 (Dense)              (None, 8)                 136       
=================================================================
Total params: 361,080
Trainable params: 360,984
Non-trainable params: 96
_________________________________________________________________Finished run_model in 18567.5973 secs


===SCORING TEST SET ===

model_complete_evaluate
{'self': <deep_ml.DeepML object at 0x7f446245a5b0>, 'x_test': None, 'y_test': None, 'model': None}
report
…
