…
early_stopping_patience
reduce_lr_patience
reduce_lr_factor
reduce_lr_min
path
report_name
verbose
validation_split
shuffle
class_weights
===TRAIN MODELS===

run_model
('Training Accuracy mean: ', 0.6834765523672104)
('Validation Accuracy mean: ', 0.4722659855335951)
('Training Loss mean: ', 0.9663412499427796)
('Validation Loss mean: ', 2.306217195391655)
Model: "sequential"
_________________________________________________________________
Layer (type)                 Output Shape              Param #   
=================================================================
masking (Masking)            (None, 500, 20)           0         
_________________________________________________________________
bidirectional (Bidirectional (None, 500, 256)          152576    
_________________________________________________________________
bidirectional_1 (Bidirection (None, 500, 128)          164352    
_________________________________________________________________
bidirectional_2 (Bidirection (None, 128)               98816     
_________________________________________________________________
dense (Dense)                (None, 32)                4128      
_________________________________________________________________
batch_normalization (BatchNo (None, 32)                128       
_________________________________________________________________
dropout (Dropout)            (None, 32)                0         
_________________________________________________________________
dense_1 (Dense)              (None, 32)                1056      
_________________________________________________________________
batch_normalization_1 (Batch (None, 32)                128       
_________________________________________________________________
dropout_1 (Dropout)          (None, 32)                0         
_________________________________________________________________
dense_2 (Dense)              (None, 16)                528       
_________________________________________________________________
batch_normalization_2 (Batch (None, 16)                64        
_________________________________________________________________
dropout_2 (Dropout)          (None, 16)                0         
_________________________________________________________________
dense_3 (Dense)              (None, 8)                 136       
=================================================================
Total params: 421,912
Trainable params: 421,752
Non-trainable params: 160
_________________________________________________________________Finished run_model in 15998.9504 secs


===SCORING TEST SET ===

model_complete_evaluate
{'self': <deep_ml.DeepML object at 0x7f054161a5b0>, 'x_test': None, 'y_test': None, 'model': None}
…
