…
[<tensorflow.python.keras.callbacks.EarlyStopping object at 0x7f8b73a1aa30>, <tensorflow.python.keras.callbacks.ReduceLROnPlateau object at 0x7f8b73a1a6d0>, <tensorflow.python.keras.callbacks.ModelCheckpoint object at 0x7f8b73a1a790>]
===TRAIN MODELS===

run_model
('Training Accuracy mean: ', 0.8269775429368019)
('Validation Accuracy mean: ', 0.7501363791897893)
('Training Loss mean: ', 0.628264551460743)
('Validation Loss mean: ', 1.0117889630794525)
Model: "sequential"
_________________________________________________________________
Layer (type)                 Output Shape              Param #   
=================================================================
masking (Masking)            (None, 500, 20)           0         
_________________________________________________________________
bidirectional (Bidirectional (None, 500, 256)          152576    
_________________________________________________________________
bidirectional_1 (Bidirection (None, 500, 256)          394240    
_________________________________________________________________
bidirectional_2 (Bidirection (None, 128)               164352    
_________________________________________________________________
dense (Dense)                (None, 64)                8256      
_________________________________________________________________
batch_normalization (BatchNo (None, 64)                256       
_________________________________________________________________
dropout (Dropout)            (None, 64)                0         
_________________________________________________________________
dense_1 (Dense)              (None, 32)                2080      
_________________________________________________________________
batch_normalization_1 (Batch (None, 32)                128       
_________________________________________________________________
dropout_1 (Dropout)          (None, 32)                0         
_________________________________________________________________
dense_2 (Dense)              (None, 8)                 264       
=================================================================
Total params: 722,152
Trainable params: 721,960
Non-trainable params: 192
_________________________________________________________________Finished run_model in 21950.9822 secs


===SCORING TEST SET ===

model_complete_evaluate
{'self': <deep_ml.DeepML object at 0x7f8b73a1a5b0>, 'x_test': None, 'y_test': None, 'model': None}
…
