…
[<tensorflow.python.keras.callbacks.EarlyStopping object at 0x7f8cfc89aa90>, <tensorflow.python.keras.callbacks.ReduceLROnPlateau object at 0x7f8cfc89a730>, <tensorflow.python.keras.callbacks.ModelCheckpoint object at 0x7f8cfc89a7f0>]
===TRAIN MODELS===

run_model
('Training Accuracy mean: ', 0.8145500829815865)
('Validation Accuracy mean: ', 0.7886958201229572)
('Training Loss mean: ', 0.6779560321569442)
('Validation Loss mean: ', 0.7797597116231918)
Model: "sequential"
_________________________________________________________________
Layer (type)                 Output Shape              Param #   
=================================================================
masking (Masking)            (None, 500, 20)           0         
_________________________________________________________________
bidirectional (Bidirectional (None, 500, 256)          152576    
_________________________________________________________________
bidirectional_1 (Bidirection (None, 500, 128)          164352    
_________________________________________________________________
bidirectional_2 (Bidirection (None, 128)               98816     
_________________________________________________________________
dense (Dense)                (None, 32)                4128      
_________________________________________________________________
batch_normalization (BatchNo (None, 32)                128       
_________________________________________________________________
dropout (Dropout)            (None, 32)                0         
_________________________________________________________________
dense_1 (Dense)              (None, 8)                 264       
=================================================================
Total params: 420,264
Trainable params: 420,200
Non-trainable params: 64
_________________________________________________________________Finished run_model in 17620.0158 secs


===SCORING TEST SET ===

model_complete_evaluate
{'self': <deep_ml.DeepML object at 0x7f8cfc89a610>, 'x_test': None, 'y_test': None, 'model': None}
report
…
