…
[<tensorflow.python.keras.callbacks.EarlyStopping object at 0x7f2b0785f7c0>, <tensorflow.python.keras.callbacks.ReduceLROnPlateau object at 0x7f2b0785f460>, <tensorflow.python.keras.callbacks.ModelCheckpoint object at 0x7f2b0785f520>]
===TRAIN MODELS===

run_model
('Training Accuracy mean: ', 0.7151461574435234)
('Validation Accuracy mean: ', 0.6831495898962021)
('Training Loss mean: ', 0.8929978516697884)
('Validation Loss mean: ', 1.0248103052377702)
Model: "sequential"
_________________________________________________________________
Layer (type)                 Output Shape              Param #   
=================================================================
masking (Masking)            (None, 500, 20)           0         
_________________________________________________________________
bidirectional (Bidirectional (None, 500, 256)          152576    
_________________________________________________________________
bidirectional_1 (Bidirection (None, 500, 128)          164352    
_________________________________________________________________
bidirectional_2 (Bidirection (None, 64)                41216     
_________________________________________________________________
dense (Dense)                (None, 32)                2080      
_________________________________________________________________
batch_normalization (BatchNo (None, 32)                128       
_________________________________________________________________
dropout (Dropout)            (None, 32)                0         
_________________________________________________________________
dense_1 (Dense)              (None, 8)                 264       
=================================================================
Total params: 360,616
Trainable params: 360,552
Non-trainable params: 64
_________________________________________________________________Finished run_model in 17015.5926 secs


===SCORING TEST SET ===

model_complete_evaluate
{'self': <deep_ml.DeepML object at 0x7f2b0785f340>, 'x_test': None, 'y_test': None, 'model': None}
report
…
