…
[<tensorflow.python.keras.callbacks.EarlyStopping object at 0x7f4b591daaf0>, <tensorflow.python.keras.callbacks.ReduceLROnPlateau object at 0x7f4b591daa90>, <tensorflow.python.keras.callbacks.ModelCheckpoint object at 0x7f4b591dab50>]
===TRAIN MODELS===

run_model
('Training Accuracy mean: ', 0.46607973098754885)
('Validation Accuracy mean: ', 0.35062705762684343)
('Training Loss mean: ', 1.4578968751430512)
('Validation Loss mean: ', 4.820001536607743)
Model: "sequential"
_________________________________________________________________
Layer (type)                 Output Shape              Param #   
=================================================================
masking (Masking)            (None, 500, 20)           0         
_________________________________________________________________
bidirectional (Bidirectional (None, 256)               152576    
_________________________________________________________________
dense (Dense)                (None, 128)               32896     
_________________________________________________________________
batch_normalization (BatchNo (None, 128)               512       
_________________________________________________________________
dropout (Dropout)            (None, 128)               0         
_________________________________________________________________
dense_1 (Dense)              (None, 64)                8256      
_________________________________________________________________
batch_normalization_1 (Batch (None, 64)                256       
_________________________________________________________________
dropout_1 (Dropout)          (None, 64)                0         
_________________________________________________________________
dense_2 (Dense)              (None, 32)                2080      
_________________________________________________________________
batch_normalization_2 (Batch (None, 32)                128       
_________________________________________________________________
dropout_2 (Dropout)          (None, 32)                0         
_________________________________________________________________
dense_3 (Dense)              (None, 8)                 264       
=================================================================
Total params: 196,968
Trainable params: 196,520
Non-trainable params: 448
_________________________________________________________________Finished run_model in 6775.4403 secs


===SCORING TEST SET ===

model_complete_evaluate
{'self': <deep_ml.DeepML object at 0x7f4b591dad60>, 'x_test': None, 'y_test': None, 'model': None}
report
…
