…
[<tensorflow.python.keras.callbacks.EarlyStopping object at 0x7f94abddf760>, <tensorflow.python.keras.callbacks.ReduceLROnPlateau object at 0x7f94abddf400>, <tensorflow.python.keras.callbacks.ModelCheckpoint object at 0x7f94abddf4c0>]
===TRAIN MODELS===

run_model
('Training Accuracy mean: ', 0.7261339768767356)
('Validation Accuracy mean: ', 0.6293138151243329)
('Training Loss mean: ', 0.8519004669785499)
('Validation Loss mean: ', 1.4480984100699426)
Model: "sequential"
_________________________________________________________________
Layer (type)                 Output Shape              Param #   
=================================================================
masking (Masking)            (None, 500, 20)           0         
_________________________________________________________________
bidirectional (Bidirectional (None, 500, 256)          152576    
_________________________________________________________________
bidirectional_1 (Bidirection (None, 500, 128)          164352    
_________________________________________________________________
bidirectional_2 (Bidirection (None, 128)               98816     
_________________________________________________________________
dense (Dense)                (None, 32)                4128      
_________________________________________________________________
batch_normalization (BatchNo (None, 32)                128       
_________________________________________________________________
dropout (Dropout)            (None, 32)                0         
_________________________________________________________________
dense_1 (Dense)              (None, 16)                528       
_________________________________________________________________
batch_normalization_1 (Batch (None, 16)                64        
_________________________________________________________________
dropout_1 (Dropout)          (None, 16)                0         
_________________________________________________________________
dense_2 (Dense)              (None, 8)                 136       
=================================================================
Total params: 420,728
Trainable params: 420,632
Non-trainable params: 96
_________________________________________________________________Finished run_model in 17462.9546 secs


===SCORING TEST SET ===

model_complete_evaluate
{'self': <deep_ml.DeepML object at 0x7f94abddf2e0>, 'x_test': None, 'y_test': None, 'model': None}
report
…
