…
[<tensorflow.python.keras.callbacks.EarlyStopping object at 0x7fa53b71aa30>, <tensorflow.python.keras.callbacks.ReduceLROnPlateau object at 0x7fa53b71a6d0>, <tensorflow.python.keras.callbacks.ModelCheckpoint object at 0x7fa53b71a790>]
===TRAIN MODELS===

run_model
('Training Accuracy mean: ', 0.6653745731711388)
('Validation Accuracy mean: ', 0.52715416546911)
('Training Loss mean: ', 1.0059235563874245)
('Validation Loss mean: ', 4.119897952675819)
Model: "sequential"
_________________________________________________________________
Layer (type)                 Output Shape              Param #   
=================================================================
masking (Masking)            (None, 500, 20)           0         
_________________________________________________________________
bidirectional (Bidirectional (None, 500, 512)          567296    
_________________________________________________________________
bidirectional_1 (Bidirection (None, 500, 256)          656384    
_________________________________________________________________
bidirectional_2 (Bidirection (None, 256)               394240    
_________________________________________________________________
dense (Dense)                (None, 128)               32896     
_________________________________________________________________
batch_normalization (BatchNo (None, 128)               512       
_________________________________________________________________
dropout (Dropout)            (None, 128)               0         
_________________________________________________________________
dense_1 (Dense)              (None, 64)                8256      
_________________________________________________________________
batch_normalization_1 (Batch (None, 64)                256       
_________________________________________________________________
dropout_1 (Dropout)          (None, 64)                0         
_________________________________________________________________
dense_2 (Dense)              (None, 8)                 520       
=================================================================
Total params: 1,660,360
Trainable params: 1,659,976
Non-trainable params: 384
_________________________________________________________________Finished run_model in 24416.6989 secs


===SCORING TEST SET ===

model_complete_evaluate
{'self': <deep_ml.DeepML object at 0x7fa53b71a5b0>, 'x_test': None, 'y_test': None, 'model': None}
…
