…
[<tensorflow.python.keras.callbacks.EarlyStopping object at 0x7f2e6ee9aa30>, <tensorflow.python.keras.callbacks.ReduceLROnPlateau object at 0x7f2e6ee9a6d0>, <tensorflow.python.keras.callbacks.ModelCheckpoint object at 0x7f2e6ee9a790>]
===TRAIN MODELS===

run_model
('Training Accuracy mean: ', 0.3110030674934387)
('Validation Accuracy mean: ', 0.30587334647774694)
('Training Loss mean: ', 1.8843227660655975)
('Validation Loss mean: ', 1.8920017623901366)
Model: "sequential"
_________________________________________________________________
Layer (type)                 Output Shape              Param #   
=================================================================
masking (Masking)            (None, 500, 20)           0         
_________________________________________________________________
bidirectional (Bidirectional (None, 500, 512)          567296    
_________________________________________________________________
bidirectional_1 (Bidirection (None, 500, 512)          1574912   
_________________________________________________________________
bidirectional_2 (Bidirection (None, 256)               656384    
_________________________________________________________________
dense (Dense)                (None, 128)               32896     
_________________________________________________________________
batch_normalization (BatchNo (None, 128)               512       
_________________________________________________________________
dropout (Dropout)            (None, 128)               0         
_________________________________________________________________
dense_1 (Dense)              (None, 64)                8256      
_________________________________________________________________
batch_normalization_1 (Batch (None, 64)                256       
_________________________________________________________________
dropout_1 (Dropout)          (None, 64)                0         
_________________________________________________________________
dense_2 (Dense)              (None, 32)                2080      
_________________________________________________________________
batch_normalization_2 (Batch (None, 32)                128       
_________________________________________________________________
dropout_2 (Dropout)          (None, 32)                0         
_________________________________________________________________
dense_3 (Dense)              (None, 8)                 264       
=================================================================
Total params: 2,842,984
Trainable params: 2,842,536
Non-trainable params: 448
_________________________________________________________________Finished run_model in 28724.5429 secs


===SCORING TEST SET ===

model_complete_evaluate
{'self': <deep_ml.DeepML object at 0x7f2e6ee9a5b0>, 'x_test': None, 'y_test': None, 'model': None}
…
