…
[<tensorflow.python.keras.callbacks.EarlyStopping object at 0x7f9f2af5aa90>, <tensorflow.python.keras.callbacks.ReduceLROnPlateau object at 0x7f9f2af5a730>, <tensorflow.python.keras.callbacks.ModelCheckpoint object at 0x7f9f2af5a7f0>]
===TRAIN MODELS===

run_model
('Training Accuracy mean: ', 0.5500189578533172)
('Validation Accuracy mean: ', 0.4189299500361085)
('Training Loss mean: ', 1.2875476837158204)
('Validation Loss mean: ', 4.243550472259521)
Model: "sequential"
_________________________________________________________________
Layer (type)                 Output Shape              Param #   
=================================================================
masking (Masking)            (None, 500, 20)           0         
_________________________________________________________________
bidirectional (Bidirectional (None, 500, 600)          770400    
_________________________________________________________________
bidirectional_1 (Bidirection (None, 600)               2162400   
_________________________________________________________________
dense (Dense)                (None, 300)               180300    
_________________________________________________________________
batch_normalization (BatchNo (None, 300)               1200      
_________________________________________________________________
dropout (Dropout)            (None, 300)               0         
_________________________________________________________________
dense_1 (Dense)              (None, 8)                 2408      
=================================================================
Total params: 3,116,708
Trainable params: 3,116,108
Non-trainable params: 600
_________________________________________________________________Finished run_model in 24485.3739 secs


===SCORING TEST SET ===

model_complete_evaluate
{'self': <deep_ml.DeepML object at 0x7f9f2af5a610>, 'x_test': None, 'y_test': None, 'model': None}
…
