…
[<tensorflow.python.keras.callbacks.EarlyStopping object at 0x7f04c709e760>, <tensorflow.python.keras.callbacks.ReduceLROnPlateau object at 0x7f04c709e400>, <tensorflow.python.keras.callbacks.ModelCheckpoint object at 0x7f04c709e4c0>]
===TRAIN MODELS===

run_model
('Training Accuracy mean: ', 0.7604700639843941)
('Validation Accuracy mean: ', 0.7409942299127579)
('Training Loss mean: ', 0.8001685059070587)
('Validation Loss mean: ', 0.8754959803819656)
Model: "sequential"
_________________________________________________________________
Layer (type)                 Output Shape              Param #   
=================================================================
masking (Masking)            (None, 500, 20)           0         
_________________________________________________________________
bidirectional (Bidirectional (None, 500, 128)          43520     
_________________________________________________________________
bidirectional_1 (Bidirection (None, 500, 128)          98816     
_________________________________________________________________
bidirectional_2 (Bidirection (None, 64)                41216     
_________________________________________________________________
dense (Dense)                (None, 32)                2080      
_________________________________________________________________
batch_normalization (BatchNo (None, 32)                128       
_________________________________________________________________
dropout (Dropout)            (None, 32)                0         
_________________________________________________________________
dense_1 (Dense)              (None, 16)                528       
_________________________________________________________________
batch_normalization_1 (Batch (None, 16)                64        
_________________________________________________________________
dropout_1 (Dropout)          (None, 16)                0         
_________________________________________________________________
dense_2 (Dense)              (None, 8)                 136       
=================================================================
Total params: 186,488
Trainable params: 186,392
Non-trainable params: 96
_________________________________________________________________Finished run_model in 16154.0482 secs


===SCORING TEST SET ===

model_complete_evaluate
{'self': <deep_ml.DeepML object at 0x7f04c709e2e0>, 'x_test': None, 'y_test': None, 'model': None}
report
…
