…
[<tensorflow.python.keras.callbacks.EarlyStopping object at 0x7fed70299700>, <tensorflow.python.keras.callbacks.ReduceLROnPlateau object at 0x7fed702996a0>, <tensorflow.python.keras.callbacks.ModelCheckpoint object at 0x7fed702992e0>]
===TRAIN MODELS===

run_model
('Training Accuracy mean: ', 0.8016945257782936)
('Validation Accuracy mean: ', 0.7744596108794213)
('Training Loss mean: ', 0.6407214269042015)
('Validation Loss mean: ', 0.7466963985562325)
Model: "sequential"
_________________________________________________________________
Layer (type)                 Output Shape              Param #   
=================================================================
masking (Masking)            (None, 500)               0         
_________________________________________________________________
embedding (Embedding)        (None, 500, 5)            105       
_________________________________________________________________
bidirectional (Bidirectional (None, 500, 128)          35840     
_________________________________________________________________
bidirectional_1 (Bidirection (None, 500, 128)          98816     
_________________________________________________________________
bidirectional_2 (Bidirection (None, 500, 64)           41216     
_________________________________________________________________
attention (attention)        (None, 64)                564       
_________________________________________________________________
dense (Dense)                (None, 32)                2080      
_________________________________________________________________
batch_normalization (BatchNo (None, 32)                128       
_________________________________________________________________
dropout (Dropout)            (None, 32)                0         
_________________________________________________________________
dense_1 (Dense)              (None, 16)                528       
_________________________________________________________________
batch_normalization_1 (Batch (None, 16)                64        
_________________________________________________________________
dropout_1 (Dropout)          (None, 16)                0         
_________________________________________________________________
dense_2 (Dense)              (None, 7)                 119       
=================================================================
Total params: 179,460
Trainable params: 179,364
Non-trainable params: 96
_________________________________________________________________Finished run_model in 13054.0107 secs


===SCORING TEST SET ===

model_complete_evaluate
{'self': <deep_ml.DeepML object at 0x7fed70299640>, 'x_test': None, 'y_test': None, 'model': None}
report
…
