…
[<tensorflow.python.keras.callbacks.EarlyStopping object at 0x7f2d7c4e26d0>, <tensorflow.python.keras.callbacks.ReduceLROnPlateau object at 0x7f2d7c4e25b0>, <tensorflow.python.keras.callbacks.ModelCheckpoint object at 0x7f2d7c4e2730>]
===TRAIN MODELS===

run_model
('Training Accuracy mean: ', 0.7866550703843435)
('Validation Accuracy mean: ', 0.5335166597366333)
('Training Loss mean: ', 0.9990275287628174)
('Validation Loss mean: ', 2.228842018445333)
Model: "sequential"
_________________________________________________________________
Layer (type)                 Output Shape              Param #   
=================================================================
masking (Masking)            (None, 500, 21)           0         
_________________________________________________________________
bidirectional (Bidirectional (None, 500, 128)          44032     
_________________________________________________________________
bidirectional_1 (Bidirection (None, 500, 128)          98816     
_________________________________________________________________
bidirectional_2 (Bidirection (None, 500, 64)           41216     
_________________________________________________________________
attention (attention)        (None, 64)                564       
_________________________________________________________________
dense (Dense)                (None, 32)                2080      
_________________________________________________________________
batch_normalization (BatchNo (None, 32)                128       
_________________________________________________________________
dropout (Dropout)            (None, 32)                0         
_________________________________________________________________
dense_1 (Dense)              (None, 16)                528       
_________________________________________________________________
batch_normalization_1 (Batch (None, 16)                64        
_________________________________________________________________
dropout_1 (Dropout)          (None, 16)                0         
_________________________________________________________________
dense_2 (Dense)              (None, 59)                1003      
=================================================================
Total params: 188,431
Trainable params: 188,335
Non-trainable params: 96
_________________________________________________________________Finished run_model in 15235.3350 secs


===SCORING TEST SET ===

model_complete_evaluate
{'self': <deep_ml.DeepML object at 0x7f2d7c4e2910>, 'x_test': None, 'y_test': None, 'model': None}
report
…
