…
[<tensorflow.python.keras.callbacks.EarlyStopping object at 0x7f6a9857ea90>, <tensorflow.python.keras.callbacks.ReduceLROnPlateau object at 0x7f6a9857e8b0>, <tensorflow.python.keras.callbacks.ModelCheckpoint object at 0x7f6a9857eac0>]
===TRAIN MODELS===

run_model
('Training Accuracy mean: ', 0.7408523025309167)
('Validation Accuracy mean: ', 0.45462195738786604)
('Training Loss mean: ', 1.2421459948144309)
('Validation Loss mean: ', 5.717310451879734)
Model: "sequential"
_________________________________________________________________
Layer (type)                 Output Shape              Param #   
=================================================================
masking (Masking)            (None, 500, 21)           0         
_________________________________________________________________
bidirectional (Bidirectional (None, 500, 128)          44032     
_________________________________________________________________
bidirectional_1 (Bidirection (None, 500, 128)          98816     
_________________________________________________________________
bidirectional_2 (Bidirection (None, 500, 64)           41216     
_________________________________________________________________
attention (attention)        (None, 64)                564       
_________________________________________________________________
dense (Dense)                (None, 32)                2080      
_________________________________________________________________
batch_normalization (BatchNo (None, 32)                128       
_________________________________________________________________
dropout (Dropout)            (None, 32)                0         
_________________________________________________________________
dense_1 (Dense)              (None, 16)                528       
_________________________________________________________________
batch_normalization_1 (Batch (None, 16)                64        
_________________________________________________________________
dropout_1 (Dropout)          (None, 16)                0         
_________________________________________________________________
dense_2 (Dense)              (None, 492)               8364      
=================================================================
Total params: 195,792
Trainable params: 195,696
Non-trainable params: 96
_________________________________________________________________Finished run_model in 5208.0706 secs


===SCORING TEST SET ===

model_complete_evaluate
{'self': <deep_ml.DeepML object at 0x7f6a9857ec10>, 'x_test': None, 'y_test': None, 'model': None}
report
…
