…
[<tensorflow.python.keras.callbacks.EarlyStopping object at 0x7f6de04d9700>, <tensorflow.python.keras.callbacks.ReduceLROnPlateau object at 0x7f6de04d96a0>, <tensorflow.python.keras.callbacks.ModelCheckpoint object at 0x7f6de04d92e0>]
===TRAIN MODELS===

run_model
('Training Accuracy mean: ', 0.8608988505601883)
('Validation Accuracy mean: ', 0.8288687938451766)
('Training Loss mean: ', 0.5011322903633117)
('Validation Loss mean: ', 0.6438768482208252)
Model: "sequential"
_________________________________________________________________
Layer (type)                 Output Shape              Param #   
=================================================================
masking (Masking)            (None, 500)               0         
_________________________________________________________________
embedding (Embedding)        (None, 500, 8)            168       
_________________________________________________________________
bidirectional (Bidirectional (None, 500, 128)          37376     
_________________________________________________________________
bidirectional_1 (Bidirection (None, 500, 128)          98816     
_________________________________________________________________
bidirectional_2 (Bidirection (None, 500, 64)           41216     
_________________________________________________________________
attention (attention)        (None, 64)                564       
_________________________________________________________________
dense (Dense)                (None, 32)                2080      
_________________________________________________________________
batch_normalization (BatchNo (None, 32)                128       
_________________________________________________________________
dropout (Dropout)            (None, 32)                0         
_________________________________________________________________
dense_1 (Dense)              (None, 16)                528       
_________________________________________________________________
batch_normalization_1 (Batch (None, 16)                64        
_________________________________________________________________
dropout_1 (Dropout)          (None, 16)                0         
_________________________________________________________________
dense_2 (Dense)              (None, 7)                 119       
=================================================================
Total params: 181,059
Trainable params: 180,963
Non-trainable params: 96
_________________________________________________________________Finished run_model in 12798.7871 secs


===SCORING TEST SET ===

model_complete_evaluate
{'self': <deep_ml.DeepML object at 0x7f6de04d9640>, 'x_test': None, 'y_test': None, 'model': None}
report
…
