…
[<tensorflow.python.keras.callbacks.EarlyStopping object at 0x7f8e9c0756a0>, <tensorflow.python.keras.callbacks.ReduceLROnPlateau object at 0x7f8e9c075580>, <tensorflow.python.keras.callbacks.ModelCheckpoint object at 0x7f8e9c075700>]
===TRAIN MODELS===

run_model
('Training Accuracy mean: ', 0.590297798315684)
('Validation Accuracy mean: ', 0.44307128470095375)
('Training Loss mean: ', 1.6672381285637143)
('Validation Loss mean: ', 2.3601190211280945)
Model: "sequential"
_________________________________________________________________
Layer (type)                 Output Shape              Param #   
=================================================================
masking (Masking)            (None, 500, 21)           0         
_________________________________________________________________
bidirectional (Bidirectional (None, 500, 128)          44032     
_________________________________________________________________
bidirectional_1 (Bidirection (None, 500, 128)          98816     
_________________________________________________________________
bidirectional_2 (Bidirection (None, 500, 64)           41216     
_________________________________________________________________
attention (attention)        (None, 64)                564       
_________________________________________________________________
dense (Dense)                (None, 32)                2080      
_________________________________________________________________
batch_normalization (BatchNo (None, 32)                128       
_________________________________________________________________
dropout (Dropout)            (None, 32)                0         
_________________________________________________________________
dense_1 (Dense)              (None, 16)                528       
_________________________________________________________________
batch_normalization_1 (Batch (None, 16)                64        
_________________________________________________________________
dropout_1 (Dropout)          (None, 16)                0         
_________________________________________________________________
dense_2 (Dense)              (None, 53)                901       
=================================================================
Total params: 188,329
Trainable params: 188,233
Non-trainable params: 96
_________________________________________________________________Finished run_model in 6203.8601 secs


===SCORING TEST SET ===

model_complete_evaluate
{'self': <deep_ml.DeepML object at 0x7f8e9c0758e0>, 'x_test': None, 'y_test': None, 'model': None}
report
…
