…
[<tensorflow.python.keras.callbacks.EarlyStopping object at 0x7f851448c730>, <tensorflow.python.keras.callbacks.ReduceLROnPlateau object at 0x7f851448c5b0>, <tensorflow.python.keras.callbacks.ModelCheckpoint object at 0x7f851448c790>]
===TRAIN MODELS===

run_model
('Training Accuracy mean: ', 0.7815259133660516)
('Validation Accuracy mean: ', 0.5118587947515554)
('Training Loss mean: ', 1.1090567146622858)
('Validation Loss mean: ', 2.8759314930716227)
Model: "sequential"
_________________________________________________________________
Layer (type)                 Output Shape              Param #   
=================================================================
masking (Masking)            (None, 500, 21)           0         
_________________________________________________________________
bidirectional (Bidirectional (None, 500, 128)          44032     
_________________________________________________________________
bidirectional_1 (Bidirection (None, 500, 128)          98816     
_________________________________________________________________
bidirectional_2 (Bidirection (None, 500, 64)           41216     
_________________________________________________________________
attention (attention)        (None, 64)                564       
_________________________________________________________________
dense (Dense)                (None, 32)                2080      
_________________________________________________________________
batch_normalization (BatchNo (None, 32)                128       
_________________________________________________________________
dropout (Dropout)            (None, 32)                0         
_________________________________________________________________
dense_1 (Dense)              (None, 16)                528       
_________________________________________________________________
batch_normalization_1 (Batch (None, 16)                64        
_________________________________________________________________
dropout_1 (Dropout)          (None, 16)                0         
_________________________________________________________________
dense_2 (Dense)              (None, 156)               2652      
=================================================================
Total params: 190,080
Trainable params: 189,984
Non-trainable params: 96
_________________________________________________________________Finished run_model in 16697.4635 secs


===SCORING TEST SET ===

model_complete_evaluate
{'self': <deep_ml.DeepML object at 0x7f851448c910>, 'x_test': None, 'y_test': None, 'model': None}
report
…
