…
[<tensorflow.python.keras.callbacks.EarlyStopping object at 0x7fdf807d9700>, <tensorflow.python.keras.callbacks.ReduceLROnPlateau object at 0x7fdf807d96a0>, <tensorflow.python.keras.callbacks.ModelCheckpoint object at 0x7fdf807d92e0>]
===TRAIN MODELS===

run_model
('Training Accuracy mean: ', 0.8353373423218727)
('Validation Accuracy mean: ', 0.7980072358250618)
('Training Loss mean: ', 0.5582204170525074)
('Validation Loss mean: ', 0.7086343204975128)
Model: "sequential"
_________________________________________________________________
Layer (type)                 Output Shape              Param #   
=================================================================
masking (Masking)            (None, 500)               0         
_________________________________________________________________
embedding (Embedding)        (None, 500, 20)           420       
_________________________________________________________________
bidirectional (Bidirectional (None, 500, 128)          43520     
_________________________________________________________________
bidirectional_1 (Bidirection (None, 500, 128)          98816     
_________________________________________________________________
bidirectional_2 (Bidirection (None, 500, 64)           41216     
_________________________________________________________________
attention (attention)        (None, 64)                564       
_________________________________________________________________
dense (Dense)                (None, 32)                2080      
_________________________________________________________________
batch_normalization (BatchNo (None, 32)                128       
_________________________________________________________________
dropout (Dropout)            (None, 32)                0         
_________________________________________________________________
dense_1 (Dense)              (None, 16)                528       
_________________________________________________________________
batch_normalization_1 (Batch (None, 16)                64        
_________________________________________________________________
dropout_1 (Dropout)          (None, 16)                0         
_________________________________________________________________
dense_2 (Dense)              (None, 7)                 119       
=================================================================
Total params: 187,455
Trainable params: 187,359
Non-trainable params: 96
_________________________________________________________________Finished run_model in 13072.8397 secs


===SCORING TEST SET ===

model_complete_evaluate
{'self': <deep_ml.DeepML object at 0x7fdf807d9640>, 'x_test': None, 'y_test': None, 'model': None}
report
…
