…
[<tensorflow.python.keras.callbacks.EarlyStopping object at 0x7fb61ddecf10>, <tensorflow.python.keras.callbacks.ReduceLROnPlateau object at 0x7fb61d65d0d0>, <tensorflow.python.keras.callbacks.ModelCheckpoint object at 0x7fb61d65d1c0>]
===TRAIN MODELS===

run_model
('Training Accuracy mean: ', 0.2192638821899891)
('Validation Accuracy mean: ', 0.16298355907201767)
('Training Loss mean: ', 3.3815868377685545)
('Validation Loss mean: ', 3.7700061798095703)
Model: "sequential"
_________________________________________________________________
Layer (type)                 Output Shape              Param #   
=================================================================
masking (Masking)            (None, 500, 21)           0         
_________________________________________________________________
bidirectional (Bidirectional (None, 500, 128)          44032     
_________________________________________________________________
bidirectional_1 (Bidirection (None, 500, 128)          98816     
_________________________________________________________________
bidirectional_2 (Bidirection (None, 500, 64)           41216     
_________________________________________________________________
attention (attention)        (None, 64)                564       
_________________________________________________________________
dense (Dense)                (None, 32)                2080      
_________________________________________________________________
batch_normalization (BatchNo (None, 32)                128       
_________________________________________________________________
dropout (Dropout)            (None, 32)                0         
_________________________________________________________________
dense_1 (Dense)              (None, 16)                528       
_________________________________________________________________
batch_normalization_1 (Batch (None, 16)                64        
_________________________________________________________________
dropout_1 (Dropout)          (None, 16)                0         
_________________________________________________________________
dense_2 (Dense)              (None, 128)               2176      
=================================================================
Total params: 189,604
Trainable params: 189,508
Non-trainable params: 96
_________________________________________________________________Finished run_model in 919.8892 secs


===SCORING TEST SET ===

model_complete_evaluate
{'self': <deep_ml.DeepML object at 0x7fb61ddecfd0>, 'x_test': None, 'y_test': None, 'model': None}
report
…
[<tensorflow.python.keras.callbacks.EarlyStopping object at 0x7f98b7bc03a0>, <tensorflow.python.keras.callbacks.ReduceLROnPlateau object at 0x7f98b7bdaee0>, <tensorflow.python.keras.callbacks.ModelCheckpoint object at 0x7f98b7bdafa0>]
===TRAIN MODELS===

run_model
('Training Accuracy mean: ', 0.4912051856517792)
('Validation Accuracy mean: ', 0.46951454877853394)
('Training Loss mean: ', 1.406288492679596)
('Validation Loss mean: ', 1.4521068930625916)
Model: "sequential"
_________________________________________________________________
Layer (type)                 Output Shape              Param #   
=================================================================
masking (Masking)            (None, 500, 21)           0         
_________________________________________________________________
bidirectional (Bidirectional (None, 500, 128)          44032     
_________________________________________________________________
bidirectional_1 (Bidirection (None, 500, 128)          98816     
_________________________________________________________________
bidirectional_2 (Bidirection (None, 500, 64)           41216     
_________________________________________________________________
attention (attention)        (None, 64)                564       
_________________________________________________________________
dense (Dense)                (None, 32)                2080      
_________________________________________________________________
batch_normalization (BatchNo (None, 32)                128       
_________________________________________________________________
dropout (Dropout)            (None, 32)                0         
_________________________________________________________________
dense_1 (Dense)              (None, 16)                528       
_________________________________________________________________
batch_normalization_1 (Batch (None, 16)                64        
_________________________________________________________________
dropout_1 (Dropout)          (None, 16)                0         
_________________________________________________________________
dense_2 (Dense)              (None, 7)                 119       
=================================================================
Total params: 187,547
Trainable params: 187,451
Non-trainable params: 96
_________________________________________________________________Finished run_model in 1018.4789 secs


===SCORING TEST SET ===

model_complete_evaluate
{'self': <deep_ml.DeepML object at 0x7f98b7bdae20>, 'x_test': None, 'y_test': None, 'model': None}
report
…
