…
[<tensorflow.python.keras.callbacks.EarlyStopping object at 0x7f5045fdd100>, <tensorflow.python.keras.callbacks.ReduceLROnPlateau object at 0x7f5045fdd250>, <tensorflow.python.keras.callbacks.ModelCheckpoint object at 0x7f5045fdd2b0>]
===TRAIN MODELS===

run_model
('Training Accuracy mean: ', 0.670510858297348)
('Validation Accuracy mean: ', 0.5270075649023056)
('Training Loss mean: ', 1.0051958739757538)
('Validation Loss mean: ', 1.4422008275985718)
Model: "sequential"
_________________________________________________________________
Layer (type)                 Output Shape              Param #   
=================================================================
masking (Masking)            (None, 500, 21)           0         
_________________________________________________________________
bidirectional (Bidirectional (None, 500, 128)          44032     
_________________________________________________________________
bidirectional_1 (Bidirection (None, 500, 128)          98816     
_________________________________________________________________
bidirectional_2 (Bidirection (None, 500, 64)           41216     
_________________________________________________________________
attention (attention)        (None, 64)                564       
_________________________________________________________________
dense (Dense)                (None, 32)                2080      
_________________________________________________________________
batch_normalization (BatchNo (None, 32)                128       
_________________________________________________________________
dropout (Dropout)            (None, 32)                0         
_________________________________________________________________
dense_1 (Dense)              (None, 16)                528       
_________________________________________________________________
batch_normalization_1 (Batch (None, 16)                64        
_________________________________________________________________
dropout_1 (Dropout)          (None, 16)                0         
_________________________________________________________________
dense_2 (Dense)              (None, 7)                 119       
=================================================================
Total params: 187,547
Trainable params: 187,451
Non-trainable params: 96
_________________________________________________________________Finished run_model in 2267.5843 secs


===Callbacks===

generate_callbacks
[<tensorflow.python.keras.callbacks.EarlyStopping object at 0x7f5045fdd100>, <tensorflow.python.keras.callbacks.ReduceLROnPlateau object at 0x7f5045fdd250>, <tensorflow.python.keras.callbacks.ModelCheckpoint object at 0x7f5045fdd2b0>]/home/amsequeira/enzymeClassification/models/try_attenttry_attentions
…
