…
[<tensorflow.python.keras.callbacks.EarlyStopping object at 0x7f9a6cfc03d0>, <tensorflow.python.keras.callbacks.ReduceLROnPlateau object at 0x7f99dd413c10>, <tensorflow.python.keras.callbacks.ModelCheckpoint object at 0x7f99dd413610>]
===TRAIN MODELS===

run_model
('Training Accuracy mean: ', 0.4798087179660797)
('Validation Accuracy mean: ', 0.4842705249786377)
('Training Loss mean: ', 1.44292471408844)
('Validation Loss mean: ', 1.4471107959747314)
Model: "sequential"
_________________________________________________________________
Layer (type)                 Output Shape              Param #   
=================================================================
masking_7 (Masking)          (None, 500, 21)           0         
_________________________________________________________________
bidirectional_21 (Bidirectio (None, 500, 128)          44032     
_________________________________________________________________
bidirectional_22 (Bidirectio (None, 500, 128)          98816     
_________________________________________________________________
bidirectional_23 (Bidirectio (None, 500, 64)           41216     
_________________________________________________________________
attention_5 (attention)      (None, 64)                564       
_________________________________________________________________
dense_6 (Dense)              (None, 32)                2080      
_________________________________________________________________
batch_normalization_4 (Batch (None, 32)                128       
_________________________________________________________________
dropout_4 (Dropout)          (None, 32)                0         
_________________________________________________________________
dense_7 (Dense)              (None, 16)                528       
_________________________________________________________________
batch_normalization_5 (Batch (None, 16)                64        
_________________________________________________________________
dropout_5 (Dropout)          (None, 16)                0         
_________________________________________________________________
dense_8 (Dense)              (None, 7)                 119       
=================================================================
Total params: 187,547
Trainable params: 187,451
Non-trainable params: 96
_________________________________________________________________Finished run_model in 609.1497 secs


===SCORING TEST SET ===

model_complete_evaluate
{'self': <deep_ml.DeepML object at 0x7f99dd4258e0>, 'x_test': None, 'y_test': None, 'model': None}
report
…
